models/best_model_pytorch.pth (torch, 134603 bytes, 9 tensors)

lstm1.weight_ih_l0 f4 [200, 10]
0	0xbd8b8461	-0.06812359
1	0x3d7ed366	0.062213324
2	0x3e24e5bf	0.16103266
3	0xbd4fa63d	-0.050695647
4	0x3e24830b	0.16065614
5	0x3dfd96bd	0.12382267
6	0x3d65ee89	0.056135688
7	0xbd801ea6	-0.06255846
8	0xbe0db754	-0.13839465
9	0xbdd3f8f8	-0.103502214
10	0x3c369c77	0.011145703
11	0xbc53b869	-0.012922385
12	0x3dc11b65	0.09429053
13	0x3c8b62c1	0.017014863
14	0xbdddaeec	-0.10824379
15	0x3d7e5cce	0.062100224
16	0xbdec3ebd	-0.11535404
17	0x3d6781e3	0.056520354
18	0x3e3c1357	0.18366753
19	0x3d0834a6	0.033253334
20	0x3d81731d	0.06320784
21	0x3eb746a8	0.35796094
22	0x3efa4119	0.4887779
23	0x3e39c8aa	0.18142954
24	0x3c0c9eac	0.008582752
25	0x3e11e153	0.1424611
26	0x3e2c141b	0.16804545
27	0x3ddf5982	0.10905744
28	0x3edf1612	0.43571526
29	0x3dda41a2	0.1065705
30	0x3ce61664	0.028086849
31	0x3e2d5ed4	0.16930705
32	0xbdbfda6d	-0.09367833
33	0xbd46d180	-0.04853964
34	0xbe49b4aa	-0.19697824
35	0xbd427fcb	-0.047485154
36	0xbdd5b7ca	-0.104354456
37	0xbe17763a	-0.14791194
38	0x3c833f45	0.01602138
39	0xbdd4dee5	-0.10394076
40	0xbe1c5228	-0.15265715
41	0x3d2a68c0	0.041603804
42	0xbd4c4635	-0.049871642
43	0xbdd723b3	-0.10504856
44	0xbe4e14a0	-0.20125055
45	0xbe26d4e3	-0.16292147
46	0x3d9d3e62	0.07677914
47	0xbc72d172	-0.0148204435
48	0xbcfa3052	-0.030540619
49	0xbd8c3d11	-0.06847585
50	0x3e734148	0.23755372
51	0xbd09e437	-0.03366491
52	0x3de359be	0.11101101
53	0x3e05274e	0.13003275
54	0x3c8fa97b	0.01753687
55	0x3e147e4e	0.14501306
56	0xbdeb4e40	-0.114895344
57	0x3d071e98	0.03298816
58	0x3dd46328	0.10370475
59	0xbb87b78e	-0.0041417545
60	0x3e84b295	0.25917497
61	0x3e647974	0.22311956
62	0x3ea0d043	0.3140889
63	0x3e3ecac7	0.18632041
64	0x3e1cf628	0.15328276
65	0xbd14382b	-0.03618638
66	0x3d5a86be	0.053351156
67	0x3e4c8b98	0.19975126
68	0x3e1d6ad4	0.15372783
69	0x3e2ed5fd	0.17073818
70	0x3e077d00	0.13231277
71	0x3e3710a3	0.1787744
72	0x3da81302	0.082067505
73	0x3d620ec3	0.05518986
74	0xbe8a1864	-0.26971734
75	0xbe659c90	-0.22423005
76	0xbe27e437	-0.16395651
77	0xbd9449e6	-0.072406575
78	0x3b4cadae	0.003123145
79	0x3e6f8610	0.23390985
80	0x3db5f5a2	0.08884741
81	0x3d4c62eb	0.049899023
82	0xbce27f45	-0.027648577
83	0x3dd0be7b	0.10192581
84	0xbe46fddf	-0.19432782
85	0xbddd63b0	-0.108100295
86	0xbe8271b3	-0.2547737
87	0xbd0d40aa	-0.034485497
88	0x3d8083a7	0.06275111
89	0xbd80c0d3	-0.06286778
90	0x3efb1bb0	0.4904456
91	0x3eae33a0	0.34023762
92	0x3e9cbe37	0.30613872
93	0x3dfc03f5	0.12305442
94	0xbe7db5f4	-0.24776441
95	0xbdf88341	-0.1213441
96	0xbe562e78	-0.20916164
97	0x3a2e493b	0.00066484854
98	0x3df7eaa3	0.121053
99	0x3d208da4	0.03919758
100	0x3e0dfddc	0.13866371
101	0xbde6c5de	-0.11268209
102	0xbe071f8a	-0.13195625
103	0xbe0bc1bc	-0.13648123
104	0xbe220b22	-0.1582456
105	0xbd8a2494	-0.06745258
106	0xbe158860	-0.14602804
107	0xbe1bce77	-0.15215479
108	0x3d8b8a05	0.068134345
109	0xbdf39f37	-0.11895602
110	0x3e87fce6	0.26560134
111	0x3dbf042e	0.09326969
112	0xbd67d2e5	-0.05659761
113	0x3d02320c	0.03178601
114	0x3c864199	0.016388701
115	0xbc8232dc	-0.015893392
116	0xbe85a583	-0.26102838
117	0x3cd22c8a	0.025656004
118	0x3d28801e	0.041137807
119	0x3d92c6cd	0.071668245
120	0xbe444af8	-0.19169223
121	0x3e8056d8	0.25066257
122	0x3e897927	0.26850244
123	0x3e38b4e4	0.18037754
124	0x3d1075b7	0.03526851
125	0x3d61271c	0.05496894
126	0xbe09b162	-0.13446572
127	0xbdce82e2	-0.10083558
128	0x3db5dd0d	0.08880053
129	0x3e510b0b	0.20414369
130	0x3d498b36	0.049205028
131	0xbe2ef59b	-0.17085879
132	0xbde5b94d	-0.11216984
133	0xbca788f0	-0.02045104
134	0xbcf5745c	-0.029962711
135	0x3db590e8	0.08865529
136	0xbdded714	-0.10880867
137	0xbd2c536e	-0.042071752
138	0xbe081238	-0.132882
139	0x3d219b1d	0.03945457
140	0x3d82cdde	0.06386922
141	0x3d7ba4d3	0.061436485
142	0xbe0a2d6c	-0.1349389
143	0x3cd926d2	0.026507769
144	0xbe27b9a9	-0.16379417
145	0x3d341379	0.043963883
146	0xbde63239	-0.11240048
147	0xbdb28e8b	-0.08718594
148	0xbd2f2cb3	-0.042767238
149	0xbc577d44	-0.013152424
150	0x3e3cb994	0.18430167
151	0xbd261720	-0.040549397
152	0x3cc64698	0.024203584
153	0xbe49c78c	-0.19705027
154	0xbe33cfb3	-0.175597
155	0x3de2d989	0.11076648
156	0x3d4ee97f	0.050515648
157	0xbe32fd8b	-0.17479531
158	0x3c787bec	0.015166264
159	0xbcb79b31	-0.022412868
160	0x3e881f04	0.26586163
161	0x3dedd9e6	0.116138265
162	0xbcc6f22e	-0.024285402
163	0x3d75bd08	0.059994727
164	0xbe788e24	-0.24272972
165	0xbde363d0	-0.11103022
166	0xbd4cf821	-0.05004132
167	0x3c438106	0.011932617
168	0xbdb96f6b	-0.090544544
169	0xbd144975	-0.036202867
170	0x3db01f20	0.085996866
171	0x3d2168f1	0.03940672
172	0x3d2836ac	0.041067764
173	0x3e0a2c3b	0.13493435
174	0xbe784b37	-0.24247442
175	0x3ba9fd5f	0.005187675
176	0xbe3ae390	-0.1825087
177	0xbca9f1e3	-0.020745223
178	0xbd5723d8	-0.052524418
179	0xbd608085	-0.054810066
180	0x3e5fe64e	0.21865198
181	0x3da21bd4	0.07915464
182	0xbcc534b8	-0.02407299
183	0xbe2ebd9d	-0.17064519
184	0xbdb4579b	-0.08805772
185	0xbd8028eb	-0.062578045
186	0xbe39f20d	-0.18158741
187	0x3cd71387	0.026254429
188	0x3c5f481d	0.013628033
189	0x3d948175	0.072512545
190	0x3d8d63a6	0.06903772
191	0x3c9ce25e	0.019150909
192	0x3e5b5c8a	0.2142202
193	0x3da7da0a	0.081958845
194	0xbdc9be8a	-0.098507956
195	0x3d7d527c	0.06184624
196	0xbe90666d	-0.28203145
197	0x3df01235	0.11722223
198	0x3e180c1b	0.14848368
199	0x3de5f0f5	0.112275995
200	0x3ea0b058	0.3138454
201	0x3e31584d	0.1731884
202	0x3e5b2f0d	0.21404667
203	0x3da8711a	0.082246974
204	0xbe65a9a5	-0.22427996
205	0xbda6dcc2	-0.08147575
206	0xbe8ab1ef	-0.27088878
207	0x3c706d7c	0.014674541
208	0xbcea3747	-0.028590811
209	0x3d2310c4	0.03981091
210	0x3d92ab28	0.07161552
211	0x3e0daf4e	0.13836405
212	0xbdd07278	-0.10178083
213	0xbda19a10	-0.07890713
214	0xbdfe7ec8	-0.12426525
215	0x3ceec6e0	0.029147565
216	0x3b234b05	0.0024916541
217	0xbde3f2bb	-0.111302815
218	0xbdef237e	-0.116766915
219	0xbd98d77e	-0.07462977
220	0x3da40ba6	0.08010034
221	0x3c54eb36	0.012995532
222	0xbb8ecea2	-0.0043581286
223	0xbd54ee70	-0.051985204
224	0xbe457345	-0.19282253
225	0xbce3a96c	-0.027790748
226	0xbe0b3400	-0.13594055
227	0xbe10744b	-0.14106862
228	0x3ddbd486	0.10733895
229	0xbd95c4c8	-0.07312924
230	0x3e39e47a	0.18153563
231	0x3e2a4aac	0.16630048
232	0x3dd60df3	0.10451879
233	0x3e141627	0.14461575
234	0xbe239083	-0.15973096
235	0xbddad469	-0.10685045
236	0xbe16fbda	-0.14744511
237	0x3cf05bf2	0.029340718
238	0x3dbd815d	0.0925319
239	0x3dfc31d3	0.12314191
240	0x3e57514f	0.2102711
241	0x3e718f4d	0.23589821
242	0x3d4d3226	0.050096653
243	0x3e6c1da2	0.23058179
244	0xbc9a88cb	-0.018864056
245	0x3e0bcb69	0.13651814
246	0xbe876563	-0.2644454
247	0xbe08d180	-0.13361168
248	0x3e184d1b	0.14873163
249	0x3d3a1461	0.04542959
250	0x3e6fcb61	0.23417427
251	0x3dae989c	0.08525202
252	0xbdd92343	-0.10602429
253	0x3dfb486a	0.12269671
254	0xbdce9403	-0.10086825
255	0x3e0fb2d7	0.14033066

lstm1.weight_hh_l0 f4 [200, 50]
0	0xbe2f8e7d	-0.17144199
1	0xbdff3359	-0.12460966
2	0xbd61856b	-0.055058878
3	0xbe28f911	-0.16501261
4	0xbe53cca1	-0.20683528
5	0xbab24b0e	-0.001360269
6	0xbe3aa744	-0.1822787
7	0xbe31154f	-0.17293285
8	0x3b3487ff	0.002754688
9	0xbe936f08	-0.28795648
10	0x3c778157	0.015106521
11	0xbbe46322	-0.0069698254
12	0xbc5a606a	-0.013328651
13	0x3e275408	0.16340649
14	0xbe2703df	-0.1631007
15	0x3e933cd3	0.28757343
16	0x3d6a6483	0.05722476
17	0xbe104d3c	-0.14091963
18	0x3eab5181	0.3346062
19	0x3cdbdd3f	0.026838897
20	0xbde326c0	-0.11091375
21	0x3dd0a21a	0.101871684
22	0xbd8bc182	-0.06824018
23	0xbbd3c454	-0.006462613
24	0xbd62fbbb	-0.05541585
25	0xbd55eff1	-0.05223078
26	0xbe14ff3b	-0.14550488
27	0x3c603f66	0.01368699
28	0xbd4a2228	-0.04934898
29	0x3e778cc2	0.24174789
30	0x3c3bed2d	0.011470121
31	0x3cc30d51	0.02381006
32	0xbd64f36f	-0.05589622
33	0xbebb2d7e	-0.36558145
34	0x3d53ad3d	0.051678885
35	0xbde51680	-0.11185932
36	0x3e048876	0.1294268
37	0xbe752ab2	-0.23942068
38	0xbe4745b0	-0.19460177
39	0x3e01d8d5	0.12680371
40	0x3e0a5a00	0.13510895
41	0x3d4ec805	0.050483722
42	0x3e2411aa	0.16022363
43	0x3dc43fa9	0.09582455
44	0xbda0a149	-0.07843263
45	0x3ec461f5	0.38355985
46	0x3d23a668	0.03995362
47	0x3e05ca81	0.1306553
48	0xbe31518a	-0.17316261
49	0xbc2ee696	-0.010675093
50	0xbe01de12	-0.1268237
51	0x3e2bc389	0.1677381
52	0xbe1c939d	-0.15290685
53	0x3b02c704	0.0019955048
54	0xbe0ec3c5	-0.13941868
55	0xbe3635a5	-0.17793901
56	0x3c18ae65	0.009318923
57	0x3e0c7618	0.13716924
58	0xbde2d31f	-0.110754244
59	0x3e3f5f71	0.18688752
60	0x3e34bffb	0.1765136
61	0xbd3ad06e	-0.04560893
62	0x3cc40b72	0.023931239
63	0xbcdf8724	-0.02728612
64	0x3cfdc7a4	0.030978985
65	0x3cd62796	0.026141923
66	0xbe5dcea3	-0.21660857
67	0x3e4ed295	0.20197518
68	0xbe4c78bb	-0.1996793
69	0xbe06a168	-0.13147509
70	0x3dc1d84a	0.09465082
71	0xbdde1b20	-0.108450174
72	0xbd800c88	-0.0625239
73	0x3d83fcf8	0.06444734
74	0x3d1acc0f	0.03779226
75	0x3d87e93a	0.06636281
76	0xbb0185f0	-0.001976367
77	0x3dab571a	0.08366223
78	0x3d6c7605	0.05772974
79	0x3e0e6137	0.13904272
80	0x3dbd872b	0.09254297
81	0x3d352e0a	0.04423336
82	0x3e2b5510	0.16731668
83	0xbcda75d3	-0.026667511
84	0xbe4c6fd2	-0.19964531
85	0x3ced5680	0.02897191
86	0x3dbb4439	0.09143872
87	0x3d65917a	0.05604694
88	0xbda5fcf0	-0.081048846
89	0xbe4da823	-0.2008367
90	0xbd3eeded	-0.046613622
91	0xbd874ad0	-0.06606066
92	0x3cae127e	0.021249052
93	0x3d1e6471	0.038670007
94	0xbda0af6e	-0.078459606
95	0xbe484c1a	-0.1956028
96	0x3d2756bd	0.040854204
97	0xbe049bd5	-0.1295007
98	0xbd9bf93e	-0.076158985
99	0x3e8aa4a5	0.2707874
100	0x3d9fa9d5	0.07796065
101	0xbd41b81e	-0.04729473
102	0xbdd0e14e	-0.101992235
103	0x3e52baf1	0.20579125
104	0xbd5a618e	-0.05331569
105	0xbd3438e6	-0.043999575
106	0x3e069c3b	0.13145535
107	0x3ddd6018	0.10809344
108	0xbd68f614	-0.056875303
109	0x3e667477	0.22505365
110	0xbcae8db1	-0.021307798
111	0xbc7c5cff	-0.015403031
112	0x3e50551c	0.20344967
113	0xbd61b300	-0.05510235
114	0x3e1a096a	0.15042654
115	0xbdee5543	-0.11637356
116	0xbdacadc1	-0.084315784
117	0xbd65ac97	-0.056072798
118	0xbe17b6d2	-0.14815834
119	0xbc2ed26f	-0.0106702885
120	0x3e359050	0.17730832
121	0xbe51460a	-0.20436874
122	0x3e46d7e3	0.19418292
123	0xbcd215a8	-0.025645092
124	0x3e0e9440	0.1392374
125	0x3dad960a	0.08475883
126	0x3e871b43	0.26387987
127	0x3e11784f	0.1420605
128	0x3e85fb3b	0.26168236
129	0x3d4e5cc9	0.050381456
130	0x3daeb600	0.085308075
131	0x3ed5f78d	0.4179043
132	0xbdbba823	-0.09162929
133	0x3e417842	0.18893531
134	0xbdef4d45	-0.1168466
135	0x3d7281ec	0.059205934
136	0xbd986b23	-0.0744231
137	0x3df710df	0.12063765
138	0xbd6f6ff2	-0.05845637
139	0xbe3a22c7	-0.18177329
140	0x3e6aaa55	0.22916539
141	0x3d475475	0.04866453
142	0x3d3d34b6	0.046192847
143	0xbc226829	-0.009912529
144	0xbea32cd2	-0.31870133
145	0x3e60bf8e	0.21948072
146	0xbca091a4	-0.019600697
147	0x3d2cc059	0.042175625
148	0x3d956a4b	0.072956644
149	0x3ee67b5a	0.45015985
150	0x3da6c0d4	0.08142248
151	0x3df68fbf	0.12039136
152	0x3c535f63	0.01290116
153	0x3d758720	0.05994332
154	0x3df52e6e	0.119717464
155	0x3d381a4d	0.044946957
156	0x3c8b0b2f	0.016973106
157	0xbbe5476a	-0.0069970386
158	0xbdbf1100	-0.09329414
159	0xbdfcacf5	-0.123376764
160	0xbca541a5	-0.020172903
161	0xbd8266b1	-0.06367243
162	0xbce0ecdb	-0.027456691
163	0x3d083572	0.033254094
164	0xbdce00d3	-0.10058751
165	0x3d128830	0.03577441
166	0xbc2f89f1	-0.01071404
167	0x3bede1f8	0.0072596036
168	0x3d8cc79e	0.068740115
169	0x3d97eb3d	0.07417915
170	0x3d80ed38	0.06295246
171	0x3dc3a771	0.09553421
172	0x3e1c9791	0.15292193
173	0xbd879fd5	-0.066222824
174	0x3d4ae4d9	0.049534652
175	0x3e037dcc	0.12840956
176	0x3e323bdf	0.17405652
177	0x3e246222	0.1605306
178	0x3e146ab0	0.14493823
179	0x3d3b8500	0.045781136
180	0xbd4aec8d	-0.049542
181	0x3e02741d	0.12739606
182	0xbdde437b	-0.10852715
183	0x3da84414	0.0821611
184	0xbd8d4ba5	-0.06899194
185	0x3dbdeaf5	0.0927333
186	0xbdbc4bc6	-0.0919414
187	0xba3e9b8d	-0.00072711037
188	0xbd587417	-0.052845087
189	0xbd9ce9f0	-0.076618075
190	0x3dbe318b	0.09286793
191	0xbcd61889	-0.026134746
192	0xbc10f90b	-0.008848439
193	0x3e27f30b	0.16401307
194	0xbd80bb35	-0.06285707
195	0xbdfbbdc1	-0.12292052
196	0xbdcbb6c0	-0.09946966
197	0xbc0397a0	-0.008031756
198	0xbd8d0a4f	-0.06886732
199	0x3df530ee	0.11972223
200	0xbe0d8931	-0.13821866
201	0xbd825f3b	-0.0636582
202	0x3e3960c9	0.18103327
203	0x3cfdc160	0.030975997
204	0x3d834ca0	0.064110994
205	0xbe00081f	-0.12503098
206	0xbe2c87a7	-0.16848622
207	0x3c882ec2	0.016623858
208	0xbdd91de9	-0.10601408
209	0x3d50618e	0.050874285
210	0x3dc3453b	0.09534689
211	0xbe1b1026	-0.15142879
212	0x3e423bc9	0.18968119
213	0xbdf8446f	-0.12122428
214	0xbddbf920	-0.10740876
215	0xbcb2e15d	-0.021835977
216	0x3dbf5abd	0.09343479
217	0xbd5a20b5	-0.053253848
218	0x3d91ad98	0.071131885
219	0x3cb6e5a9	0.022326307
220	0x3e6e3b04	0.232647
221	0x3d5a30ab	0.05326907
222	0x3baf513d	0.0053502605
223	0x3e04ee76	0.1298159
224	0x3e3e1765	0.18563612
225	0x3d9f1572	0.07767762
226	0xbdbc27a1	-0.09187246
227	0x3df55e11	0.11980832
228	0xbe1b1967	-0.15146409
229	0xbe2b54e1	-0.16731597
230	0x3cf28e48	0.02960886
231	0x3d8e1b62	0.069388166
232	0x3e5a38e9	0.21310772
233	0xbdc4d9d3	-0.09611859
234	0xbc6d41cc	-0.014481019
235	0xbd3364c5	-0.043797273
236	0xbd904d0d	-0.07045946
237	0x3d1231c7	0.035692003
238	0x3d8ae9d4	0.067828804
239	0xbd8374f3	-0.06418791
240	0x3d6770b9	0.056503985
241	0xbdf12e84	-0.1177645
242	0x3dea8e40	0.11452913
243	0xbe1cd956	-0.15317282
244	0xbd28c7f7	-0.041206326
245	0x3dda2ff2	0.10653676
246	0xbd886da7	-0.066615395
247	0x3d23071f	0.039801713
248	0xbd8c4e07	-0.0685082
249	0x3bf324dc	0.0074201655
250	0xbe2c3711	-0.16817881
251	0x3de03325	0.10947255
252	0xbde810b5	-0.113313116
253	0x3d8a6c88	0.06758982
254	0x3dabdd32	0.08391799
255	0x3dc6a332	0.09699096

lstm1.bias_ih_l0 f4 [200]
0	0xbe17a936	-0.14810643
1	0x3da7d881	0.08195592
2	0x3eb1822a	0.3466962
3	0x3e23b276	0.15986046
4	0xbd4434cd	-0.047901917
5	0xbc564fef	-0.013080581
6	0x3e64d32f	0.22346185
7	0x3dc9e8b9	0.098588414
8	0x3d83c1d4	0.06433454
9	0x3e535bd1	0.20640494
10	0xbce5a800	-0.02803421
11	0x3e41f0af	0.1893947
12	0x3ce5cc98	0.02805166
13	0xbe2dc164	-0.16968304
14	0xba80c449	-0.0009824123
15	0xbe44d538	-0.19221961
16	0x3cc5841f	0.024110852
17	0xbd15b33a	-0.036547877
18	0xbdcac2e4	-0.09900454
19	0x3e10787f	0.14108466
20	0x3e9245ea	0.28568965
21	0x3d9e1cf8	0.07720369
22	0x3dc00f68	0.093779385
23	0xbba4e2a7	-0.005031902
24	0x3dc82216	0.097721264
25	0x3bb07d80	0.0053860545
26	0xbc93e5aa	-0.018053848
27	0xbda19f9d	-0.07891772
28	0x3e83f0df	0.25769708
29	0x3e1bbba3	0.15208296
30	0x3dc3f885	0.09568886
31	0xbdbc651e	-0.09198974
32	0x3ef9b530	0.48771048
33	0xbe03012f	-0.1279342
34	0x3debfb23	0.1152251
35	0xbd630c01	-0.05543137
36	0x3acf0cd8	0.0015796674
37	0xbcdcb08d	-0.026939655
38	0x3e96ae7a	0.2942999
39	0xbd93db55	-0.07219569
40	0xbddf9f74	-0.10919085
41	0xbe148ffa	-0.14508048
42	0xbdf471fd	-0.11935804
43	0x3dd02b17	0.10164469
44	0xbc81de25	-0.015852997
45	0xbc82aab0	-0.01595053
46	0x3e3f78fd	0.18698497
47	0x3ddd623c	0.10809752
48	0x3b450019	0.0030059873
49	0x3d5e507f	0.054275986
50	0xbdc013d2	-0.093787804
51	0xbd731d14	-0.059353903
52	0xbe1a6aef	-0.15079854
53	0xbdedbb6e	-0.11608015
54	0xbda7ab59	-0.08186979
55	0xbd1cd499	-0.038288686
56	0xbeca3254	-0.39491522
57	0xbdefac8b	-0.11702832
58	0xbdd6b232	-0.10483207
59	0xbe5996ee	-0.21248981
60	0x3d87d078	0.06631559
61	0xbe516e49	-0.20452227
62	0xbbf4147b	-0.0074487305
63	0x3c28e812	0.010309236
64	0x3bed66cb	0.00724492
65	0xbe10239f	-0.14076088
66	0x3d8b0496	0.06787984
67	0xbe2c8866	-0.16848907
68	0xbe0032b1	-0.12519337
69	0x3dd0a40c	0.101875395
70	0xbec4ed31	-0.38462213
71	0x3cb2025b	0.021729639
72	0x3df95ad6	0.12175529
73	0x3c3d05c9	0.011537024
74	0x3dea1349	0.114294596
75	0xbe1aad2f	-0.15105127
76	0xbda89566	-0.082316205
77	0x3d4af469	0.049549494
78	0xbe621c3f	-0.22081088
79	0xbded26c6	-0.11579661
80	0xbbae0246	-0.0053103296
81	0xbd89da86	-0.06731133
82	0xbec4e8a1	-0.38458732
83	0xbe1c90bd	-0.15289588
84	0xbe9a5a48	-0.30147004
85	0xbdcae059	-0.09906072
86	0xbe58534a	-0.21125522
87	0xbe56ee8f	-0.2098944
88	0xbe4fd7bc	-0.2029714
89	0x3db56aee	0.08858286
90	0xbda3d67e	-0.079998955
91	0xbc54271d	-0.012948778
92	0xbd71ea13	-0.05906112
93	0xbe67da87	-0.22641955
94	0xbe00acef	-0.12565969
95	0xbcb0703c	-0.021537893
96	0xbd8149b5	-0.063128866
97	0xbdba84a6	-0.09107332
98	0xbe168955	-0.14700826
99	0xbe49f45a	-0.19722119
100	0xbe022e1c	-0.12712902
101	0x3d7d1c23	0.06179441
102	0xbcf9ab55	-0.030477205
103	0x3da9350e	0.082620725
104	0x3beb039c	0.007172061
105	0xbd510656	-0.051031433
106	0x3c60d146	0.01372177
107	0xbda3b815	-0.07994095
108	0xbd480f0b	-0.04884247
109	0xbe1ded49	-0.15422548
110	0x3d96d9fc	0.07365796
111	0x3ddc8dbd	0.10769222
112	0x3dbdf231	0.0927471
113	0x3d9e4cb9	0.077294774
114	0xbc982330	-0.018571466
115	0xbd7ac99d	-0.06122743
116	0xbd3b03bb	-0.045657855
117	0x3d31d473	0.043415498
118	0xbd2fc05a	-0.04290805
119	0xbd21bf11	-0.039488856
120	0x3ce9299f	0.02846223
121	0x3c2c47d2	0.01051517
122	0x3d61d282	0.055132397
123	0x3d14f2b9	0.03636429
124	0xbdabb20d	-0.0838357
125	0x3d74cb15	0.059763987
126	0x3de189ca	0.11012609
127	0xbcdd41cc	-0.027008913
128	0xbd3f48df	-0.046700355
129	0xbbb1fca9	-0.0054317308
130	0x3d9ae9e1	0.0756414
131	0x3e14ae42	0.14519599
132	0xbc5bab64	-0.013407562
133	0xbc62677f	-0.013818621
134	0x3d2ff756	0.042960487
135	0xbdde2710	-0.10847294
136	0xba56e1a0	-0.0008197073
137	0xbdc69f17	-0.09698313
138	0xbd30ca2b	-0.043161552
139	0x3ba8952d	0.0051447363
140	0x3d366854	0.04453309
141	0x3d3158a5	0.04329743
142	0xbd10f4db	-0.035389762
143	0x3d1b2ebc	0.037886366
144	0xbdfdb563	-0.123881124
145	0x3dd5d028	0.10440093
146	0x3da97da3	0.082759164
147	0x3d42e6ab	0.047583263
148	0x3cb7bced	0.022428954
149	0x3d9bd542	0.07609035
150	0xbd7e7fb0	-0.06213349
151	0x3d7d8626	0.061895512
152	0x3e408274	0.18799764
153	0x3e2412c5	0.16022785
154	0xbb3e59bf	-0.0029045192
155	0xbd49af86	-0.049239658
156	0x3e431cb3	0.19053917
157	0x3ccbd6cb	0.024882695
158	0xbc9d42fe	-0.019196983
159	0x3e8bde5a	0.27318078
160	0x3dde6f9e	0.10861133
161	0x3e125b86	0.14292726
162	0x3e017a14	0.12644225
163	0x3d3a555e	0.04549157
164	0x3cb02589	0.021502273
165	0x3d263336	0.040576182
166	0xbdefc166	-0.1170681
167	0x3d707779	0.058707688
168	0xbe348707	-0.17629634
169	0x3c918f43	0.017768508
170	0x3e0113ff	0.12605284
171	0x3d8172d2	0.06320728
172	0x3cacc739	0.02109109
173	0x3dcf7da0	0.10131383
174	0x3e722f16	0.23650774
175	0x3e0d0a2e	0.13773414
176	0x3d223412	0.03960044
177	0xbddefcd7	-0.10888069
178	0x3e8cd716	0.27507848
179	0x3e082710	0.13296151
180	0x3dc54662	0.09632565
181	0xbe17b6cd	-0.14815827
182	0x3f259d6b	0.64693326
183	0xbc6ece2a	-0.0145755205
184	0x3e18552e	0.14876243
185	0x3c8e972b	0.017406067
186	0x3ddb385b	0.10704108
187	0xbc6a08b8	-0.014284305
188	0x3e661bc6	0.22471532
189	0xbce36398	-0.027757451
190	0x3cf0b7f3	0.029384589
191	0xbd3b0d47	-0.04566696
192	0xbe184fc6	-0.14874181
193	0x3db1a2d2	0.08673634
194	0x3db71e5d	0.08941338
195	0xbdd8834e	-0.105719194
196	0xbc740bf2	-0.014895426
197	0xbd802ce8	-0.06258565
198	0x3d3a535d	0.045489658
199	0xbe3ce983	-0.18448453

lstm1.bias_hh_l0 f4 [200]
0	0xbe1d96e4	-0.15389591
1	0x3cc66bf1	0.024221392
2	0x3e95178a	0.2911952
3	0x3c1b749a	0.009488249
4	0xbca69d78	-0.020338759
5	0x3d1aed17	0.037823763
6	0x3de635ca	0.11240728
7	0x3dd3a4a4	0.10334137
8	0xbd52edd4	-0.05149634
9	0x3dca5a8a	0.0988055
10	0x3d991586	0.074748084
11	0x3df47229	0.11935837
12	0x3e8a7f00	0.27050018
13	0xbe461142	-0.19342521
14	0x3de2c338	0.11072391
15	0xbe48adc6	-0.1959754
16	0xbdf3a9e0	-0.118976355
17	0xbdcbf0a7	-0.0995801
18	0x3cb9e4e2	0.022692148
19	0x3d19caec	0.037547037
20	0x3e5d16d2	0.21590737
21	0x3dc59a96	0.096486256
22	0x3de73fc2	0.11291458
23	0x3c992229	0.018693047
24	0x3db19660	0.0867126
25	0x3d727cff	0.059201237
26	0xbdd21e41	-0.10259677
27	0xbe159415	-0.1460727
28	0x3e3c3a31	0.18381573
29	0x3e2608bb	0.16214268
30	0x3d913cda	0.07091685
31	0xbd3ca976	-0.046060048
32	0x3ee108c2	0.43951994
33	0xbdd1dc29	-0.1024707
34	0x3ea75965	0.3268539
35	0xbd93dc71	-0.0721978
36	0xbd81d15f	-0.063387625
37	0x3e644abd	0.22294135
38	0x3e870285	0.2636911
39	0xbd8217cc	-0.06352195
40	0xbe58932e	-0.21149895
41	0x3c8004a6	0.015627217
42	0x3d2c8513	0.042119097
43	0x3e94a3f5	0.2903134
44	0xbc8b2b5c	-0.016988449
45	0x3ca97316	0.02068476
46	0x3e28e5e7	0.16493951
47	0x3e00a28a	0.12562004
48	0x3e31e624	0.17372948
49	0xbdb52c30	-0.08846319
50	0xbcb2c327	-0.021821572
51	0xbdf39e32	-0.11895408
52	0xbeb0fdcf	-0.3456864
53	0x3d841070	0.06448448
54	0xbe0e255e	-0.13881442
55	0xbd08e816	-0.03342446
56	0xbeaceb29	-0.33773163
57	0x3d9c0bdc	0.076194495
58	0x3df30cf9	0.11867709
59	0xbe0a2aad	-0.13492842
60	0xbccf986b	-0.025341233
61	0xbdc405d7	-0.09571426
62	0xbe7c7246	-0.24652967
63	0x3c8de6c2	0.017321948
64	0xbe38cb86	-0.18046388
65	0x3ade251a	0.0016948313
66	0x3d2de95e	0.042458884
67	0x3db5b552	0.08872475
68	0xbc16e2fc	-0.009209391
69	0xbc4468c9	-0.011987873
70	0xbeccd38c	-0.40005147
71	0xbdc2fa1c	-0.09520361
72	0xbe06fd59	-0.13182582
73	0xbd6cbcc2	-0.0577972
74	0x3d09e54d	0.033665944
75	0x3daf0c85	0.0854731
76	0xbd28d32d	-0.041217018
77	0xbd043c5a	-0.03228412
78	0xbeb7bac4	-0.35884678
79	0xbea5e103	-0.32398233
80	0xbe33f87e	-0.17575261
81	0xbd44e0d4	-0.048065975
82	0xbe54f2c1	-0.20795728
83	0xbcfc1c76	-0.03077529
84	0xbe1b8c16	-0.15190157
85	0xbc8864b5	-0.016649583
86	0xbdd2174f	-0.10258352
87	0xbe3700d2	-0.17871407
88	0xbd40d951	-0.04708225
89	0x3d950636	0.07276575
90	0xbe442d9c	-0.19158024
91	0xbe31a412	-0.17347744
92	0xbe1a4c1d	-0.15068097
93	0xbe8f53cf	-0.27993628
94	0xbe067fdc	-0.13134712
95	0xbd342867	-0.043983843
96	0xbe28eb99	-0.16496123
97	0xbbcdfb96	-0.006286095
98	0xbe2b9c16	-0.16758761
99	0xbdc829ff	-0.09773635
100	0xbdae1ba2	-0.08501364
101	0x3cb9d80d	0.022686029
102	0xbd530db1	-0.05152673
103	0xbdc69311	-0.096960194
104	0xbe0a921e	-0.13532302
105	0x3dc6caba	0.09706636
106	0x3df99d00	0.121881485
107	0x3ddb6760	0.107130766
108	0x3c9e4057	0.019317789
109	0x3d384d9e	0.044995897
110	0x3c3b053f	0.011414825
111	0x3d91876f	0.0710591
112	0xbe031f05	-0.12804802
113	0xbd90ebbd	-0.070762135
114	0x3c9e9474	0.019357897
115	0x3d604d3c	0.054761156
116	0xbd5da9a1	-0.05411685
117	0xbc198ed8	-0.0093724355
118	0x3dec163d	0.11527679
119	0x3d7e4a13	0.06208236
120	0xbd817041	-0.06320239
121	0xbd1af2cc	-0.037829205
122	0xbc730cf9	-0.014834636
123	0xbd5cb1b0	-0.053880394
124	0x3d4c7518	0.049916357
125	0xbcfd195e	-0.030895885
126	0x3d81200d	0.06304941
127	0x3dcc84bb	0.09986254
128	0x3e0eef50	0.13958478
129	0x3bc6a6f5	0.0060623833
130	0xbe1ad101	-0.15118791
131	0x3e19c9e6	0.15018424
132	0xbbecfeab	-0.007232507
133	0x3dcb9ab2	0.09941615
134	0xbd1dcb0e	-0.038523726
135	0x3d06a47a	0.0328717
136	0x3dd7de3c	0.10540435
137	0x3cbfb37b	0.023401013
138	0xbd949f41	-0.07256938
139	0x3decf90d	0.1157094
140	0x3b80f84f	0.0039358507
141	0xbd9f0ebd	-0.07766483
142	0x3d2076e1	0.03917587
143	0x3df2a59c	0.11847994
144	0xbdbb5b06	-0.09148221
145	0xbc51b1d2	-0.012798743
146	0xbd6a205c	-0.057159767
147	0xbcf3ed4a	-0.029776234
148	0xbdf42502	-0.11921121
149	0xbc7bf039	-0.015377098
150	0x3c81170f	0.015758066
151	0x3e1df2fe	0.15424725
152	0x3e5ab375	0.2135752
153	0x3d953b68	0.072867215
154	0x3c906c25	0.017629692
155	0x3dccc34d	0.09998188
156	0x3ddc9abc	0.10771701
157	0x3d8ff9a6	0.070300385
158	0xbdbd37c9	-0.09239156
159	0x3e9169cd	0.28401032
160	0x3d2d02d3	0.04223902
161	0x3e29d1d1	0.16583945
162	0x3ddf2a22	0.10896708
163	0x3d56c034	0.052429393
164	0xbd8d1e4f	-0.068905465
165	0xbd1a50f6	-0.037674867
166	0x3da30298	0.07959479
167	0x3d093976	0.033502065
168	0xbe1f2999	-0.15543212
169	0xbd3d0983	-0.04615165
170	0x3e51b79a	0.20480195
171	0xbdaab888	-0.08335978
172	0x3e035061	0.12823631
173	0x3e36d59f	0.17854927
174	0x3e65e6b4	0.22451288
175	0x3d8450cf	0.064607255
176	0xbdffd6f9	-0.12492175
177	0x3d5fe829	0.054664765
178	0x3e46924f	0.1939175
179	0x3ec73573	0.38907966
180	0x3cccf0b8	0.025017127
181	0xbdbc1fb4	-0.091857344
182	0x3f14c2d3	0.5810978
183	0xbdaac9a6	-0.08339243
184	0x3da814b9	0.082070775
185	0xbe5765f6	-0.21034989
186	0x3dd7eef0	0.105436206
187	0x3db56c82	0.08858587
188	0x3e79c3e5	0.24391134
189	0x3dd36ccf	0.10323488
190	0xbcc2441a	-0.023714114
191	0xbc651f84	-0.013984565
192	0xbd99f45d	-0.07517312
193	0x3e49ca8e	0.19706175
194	0x3d672706	0.0564337
195	0xbd3eb6dc	-0.046561107
196	0x3dbb626d	0.091496326
197	0xbd1f2010	-0.038848937
198	0xbd993604	-0.07481006
199	0xbda4946e	-0.08036123

lstm2.weight_ih_l0 f4 [200, 50]
0	0x3db8aca1	0.09017301
1	0x3dd274a0	0.10276151
2	0x3daecbc8	0.08534962
3	0x3cc36aba	0.023854602
4	0xbcdbad58	-0.026816055
5	0xbc196272	-0.00936185
6	0xbddaed81	-0.106898315
7	0xbca61156	-0.020271938
8	0xbe07b5d8	-0.13252962
9	0x3df0c52f	0.1175636
10	0x3daf3c39	0.085564084
11	0xbe15c958	-0.14627588
12	0x3d8526a2	0.06501509
13	0x3e16dc2a	0.14732423
14	0xbd000a0e	-0.03125959
15	0xbe09b513	-0.1344798
16	0xbe41a126	-0.1890913
17	0x3c98ec8d	0.018667484
18	0xbcf6d8ae	-0.030132618
19	0xbd0648d8	-0.032784313
20	0x3e1f4ec1	0.15557386
21	0x3c7cd728	0.015432157
22	0x3e448466	0.19191131
23	0x3e1da116	0.1539348
24	0x3e2c3a5d	0.16819139
25	0xbd93d93e	-0.0721917
26	0x3dd68899	0.10475273
27	0x3d987623	0.07444408
28	0xbd1085b3	-0.035283756
29	0xbdb4e619	-0.0883295
30	0xbd433d9b	-0.047666173
31	0xbdb78a62	-0.08961941
32	0x3df4c349	0.1195131
33	0x3dc4b425	0.09604672
34	0x3db7f535	0.089823164
35	0xbd60918c	-0.054826304
36	0xbe16cf03	-0.14727406
37	0xbdddb805	-0.108261146
38	0x3c8f161d	0.0174666
39	0xbdcd6f8a	-0.1003104
40	0x3cb14a56	0.021641891
41	0xbd9aa28c	-0.075505346
42	0xbdd257b8	-0.10270637
43	0xbd9e342b	-0.07724794
44	0x3dd64d2d	0.10463939
45	0x3ac981d0	0.001537377
46	0xbe5b6ac2	-0.21427444
47	0x3d594064	0.053039923
48	0x3e43fed1	0.19140173
49	0x3e31a099	0.1734642
50	0xbdb1ff34	-0.08691254
51	0x3e4b4428	0.19850218
52	0x3bd192e4	0.0063956846
53	0x3c7be240	0.015373766
54	0x3c8947e4	0.016757913
55	0x3d4426ed	0.047888685
56	0xbe29e578	-0.16591442
57	0xbd84274f	-0.0645281
58	0xbcebd1f0	-0.02878663
59	0x3dc6bb8e	0.09703742
60	0x3e214b13	0.15751295
61	0xbdcfcb0e	-0.101461515
62	0x3de869d3	0.11348309
63	0xbd41e743	-0.04733969
64	0xbd9207f1	-0.07130421
65	0xbd512567	-0.05106106
66	0xbd39d10f	-0.04536539
67	0x3d29f2cb	0.04149131
68	0xbbf38965	-0.00743215
69	0x3c4beab2	0.012446092
70	0xbbcab070	-0.006185584
71	0x3d85ecb4	0.06539288
72	0xbd8148ad	-0.0631269
73	0x3cdda3a4	0.027055569
74	0x3db8da2f	0.0902599
75	0x3d586ef5	0.052840192
76	0x3db5ab46	0.088705584
77	0x3e08541b	0.13313334
78	0xbd9fe092	-0.07806505
79	0x3c6d78eb	0.014494161
80	0x3d909b56	0.07060878
81	0xbde9461c	-0.113903254
82	0xbc756782	-0.0149782915
83	0x3e1df5ac	0.15425748
84	0x3d3d5ab9	0.046229098
85	0x3e093be4	0.13401753
86	0x3d24fb23	0.040278565
87	0xbdee6cee	-0.116418704
88	0x3d2fc721	0.042914513
89	0x3d6914cb	0.056904595
90	0x3be8bfa7	0.007102925
91	0xbc135ee5	-0.008994793
92	0xbbe60148	-0.0070191957
93	0xbd4b02a7	-0.049563076
94	0xbd9ddea0	-0.07708478
95	0xbe46c383	-0.1941052
96	0xbd9fc21a	-0.07800694
97	0x3ddc2bda	0.107505515
98	0x3e3eae9b	0.18621294
99	0x3e3f2225	0.18665369
100	0xbe03d00f	-0.12872337
101	0x3e635e65	0.22203977
102	0x3d674420	0.056461453
103	0xbdc68902	-0.09694101
104	0x3dca45b8	0.09876579
105	0x3deb7436	0.11496775
106	0x3d27570c	0.0408545
107	0xbb636fdb	-0.0034704122
108	0xbe3c9398	-0.18415678
109	0x3d3ec63b	0.046575766
110	0xbd7be77c	-0.061500058
111	0x3d04652c	0.032323048
112	0x3d02f558	0.03197226
113	0x3df6c719	0.120496936
114	0xbda35fb8	-0.07977241
115	0xbd0ce2bd	-0.034395922
116	0xbe0c1b31	-0.13682248
117	0xbd36aecc	-0.044600293
118	0xbbe04f05	-0.0068453574
119	0xbcac6e49	-0.021048682
120	0x3db54275	0.08850566
121	0xbd222364	-0.039584532
122	0x3d149414	0.03627403
123	0x3d970da6	0.0737565
124	0x3e2b4d4b	0.16728704
125	0xbe0b3b6f	-0.13596891
126	0x3e062eef	0.13103841
127	0x3cf63036	0.030052286
128	0x3d502952	0.050820656
129	0x3d7402c9	0.05957297
130	0x3cee29e8	0.029072717
131	0xbcbaed9a	-0.022818375
132	0xbda3238d	-0.07965765
133	0x3e002962	0.12515786
134	0x3e0252ff	0.12726973
135	0x3d202f08	0.039107352
136	0xbe509418	-0.20368993
137	0xbdf4c4d0	-0.119516015
138	0xbdb89643	-0.09013035
139	0xbbb2a713	-0.0054520457
140	0xbd34eb8c	-0.044169948
141	0x3d66f0fa	0.056382157
142	0x3d217824	0.039421216
143	0xbe035a1b	-0.12827341
144	0x3d80a7d8	0.06282014
145	0xbd234e9d	-0.039869893
146	0xbd9cc7bc	-0.07655284
147	0x3d9bff35	0.07617036
148	0x3e3b6d7a	0.1830348
149	0xbd226ad8	-0.039652675
150	0x3cec531d	0.028848225
151	0x3e0da787	0.13833438
152	0x3e46cfda	0.19415227
153	0x3de18574	0.11011782
154	0x3b0baa96	0.0021311394
155	0xbc416b53	-0.011805373
156	0xbe01f608	-0.1269151
157	0x3d5c0602	0.053716667
158	0xbcaf7369	-0.021417337
159	0x3d0395c1	0.03212524
160	0x3e4b425b	0.19849531
161	0xbc545f18	-0.012962125
162	0x3d49289c	0.049110994
163	0x3ca9588b	0.020672103
164	0x3c5e4015	0.013565083
165	0xbd121d01	-0.03567219
166	0x3c6b99a3	0.014379892
167	0xbc1258d1	-0.008932308
168	0x3c4d41c9	0.012527891
169	0xbd1acbb4	-0.037791923
170	0x3db656ca	0.089032724
171	0x3cdbe558	0.026842758
172	0x3dcaf1cd	0.09909401
173	0xbc9647d9	-0.018344807
174	0x3e193b52	0.14964035
175	0x3df03c3a	0.11730237
176	0x3d112d34	0.0354435
177	0xbdf02d11	-0.11727346
178	0xbe34b5d2	-0.17647484
179	0xbe5bc35a	-0.2146124
180	0x3dd775c5	0.1052051
181	0xbd4f6c37	-0.05064031
182	0x3e00ec78	0.12590206
183	0x3dda8e9b	0.10671731
184	0x3e344e1e	0.17607924
185	0x3db6ecde	0.089318976
186	0xbe541178	-0.20709789
187	0x3d84a005	0.06475834
188	0xbd550030	-0.052002132
189	0xbe08e931	-0.13370205
190	0x3d309ddd	0.0431193
191	0xbcbed805	-0.023296366
192	0xbd3b61cd	-0.045747567
193	0xbd90e733	-0.07075348
194	0xbb1319c8	-0.0022445787
195	0xbdb9f5bf	-0.090800755
196	0xbe36369b	-0.17794268
197	0x3deb3920	0.11485505
198	0x3e13974f	0.14413188
199	0xbd550f72	-0.052016683
200	0x3daa1ae8	0.08305913
201	0x3d4993a0	0.04921305
202	0x3d05b652	0.032644577
203	0x3d922a0d	0.07136927
204	0x3defde14	0.1171228
205	0xbce75c0a	-0.02824213
206	0xbc413a7f	-0.011793732
207	0x3e44fdb3	0.19237404
208	0xbd13c254	-0.036073998
209	0x3cd87fbb	0.026428094
210	0x3dadf0e1	0.0849321
211	0xbdc94142	-0.098269
212	0x3d8e1e62	0.06939389
213	0xbc4f6dfd	-0.012660501
214	0xbcf7044c	-0.030153416
215	0x3d7b7c7a	0.061398007
216	0xbe28b466	-0.16475067
217	0x3c850907	0.016239656
218	0xbd6dd096	-0.05806025
219	0xbe1b083d	-0.15139861
220	0x3df50881	0.119645126
221	0xbdf982cc	-0.12183151
222	0x3e26f4a5	0.16304262
223	0xbe015fd8	-0.12634218
224	0x3de26599	0.110545345
225	0xbdd73d40	-0.105097294
226	0xbdebc070	-0.11511314
227	0x3c945e07	0.018111242
228	0xbcbbfd67	-0.02294798
229	0x3da6df8f	0.08148109
230	0xbdd83982	-0.10557844
231	0xbdff2cb7	-0.124597006
232	0xbd7c4ed5	-0.061598618
233	0xbca4e106	-0.02012683
234	0x3d141679	0.036154244
235	0x3d893ea1	0.06701399
236	0xbe29b5d5	-0.1657327
237	0xbe041880	-0.12899971
238	0x3d603c49	0.054744992
239	0x3d93cbf4	0.07216635
240	0xbd879c5b	-0.06621619
241	0x3d3295e5	0.04359998
242	0x3d2c499c	0.042062387
243	0xbe0664c8	-0.13124382
244	0xbd5f9f5d	-0.05459534
245	0xbc01d650	-0.007924631
246	0xbd98ae18	-0.07455081
247	0xbdd99df3	-0.106258295
248	0x3da41571	0.08011902
249	0xbd4b80ae	-0.049683265
250	0x3d5d4b19	0.054026697
251	0xbcf60212	-0.030030284
252	0x3c6b08b7	0.0143453395
253	0xbd2fdea7	-0.042936947
254	0x3c7cd36f	0.015431269
255	0x3c750ab7	0.014956168

lstm2.weight_hh_l0 f4 [200, 50]
0	0xbde02ed7	-0.10946434
1	0xbdb8ce64	-0.09023741
2	0x3dbf8485	0.09351448
3	0x38512fa9	4.987387e-05
4	0x3d790b06	0.06080153
5	0xbe12a70c	-0.14321536
6	0xbded109d	-0.11575434
7	0x3d693c7a	0.05694244
8	0xbd1bbb94	-0.038020685
9	0xbd5bfb2e	-0.05370634
10	0xbd45fd7f	-0.048337456
11	0x3d708138	0.058716983
12	0x3d5048da	0.050850727
13	0xbd3b818b	-0.04577784
14	0xbe001582	-0.12508205
15	0xbd719daa	-0.05898825
16	0xbc4d51ae	-0.012531681
17	0x3daa60e2	0.0831926
18	0x3df85bc0	0.12126875
19	0x3e0c29be	0.13687798
20	0xbe16c33e	-0.14722916
21	0xbd71bc7e	-0.05901765
22	0x3d72a671	0.059240762
23	0x3d79ee40	0.06101823
24	0xbd1189d3	-0.03553183
25	0x3dcfca3a	0.101459935
26	0xbd9c19f5	-0.076221384
27	0xbdab0bf1	-0.08351887
28	0x3dda24e0	0.106515646
29	0xbddcc70e	-0.10780154
30	0xbc9a5fce	-0.018844511
31	0xbd540d6a	-0.051770605
32	0xbdfc9e65	-0.12334899
33	0x3e140d60	0.14458227
34	0x3df8ab9b	0.12142106
35	0xbd8a4b47	-0.06752639
36	0xbdba3935	-0.090929426
37	0xbe1a4abd	-0.15067573
38	0xbd89ef49	-0.06735093
39	0x3d810c57	0.06301182
40	0x3cb5ac89	0.022176998
41	0x3c9ff49f	0.019525824
42	0x3cbf6bac	0.023366772
43	0xbd44d783	-0.04805709
44	0x3dd1a785	0.1023703
45	0xbdf07fb7	-0.1174311
46	0xbdb3db5e	-0.08782075
47	0xbd5ce45e	-0.053928725
48	0x3da5f428	0.0810321
49	0xbe105f58	-0.14098871
50	0x3de257ba	0.11051889
51	0xbc3b17f0	-0.011419281
52	0x3dfabd7e	0.12243174
53	0xbde64c59	-0.11245031
54	0xbb19cd1c	-0.0023468202
55	0xbc982d4b	-0.018576285
56	0xbda7a087	-0.08184915
57	0xbd3e98ee	-0.046532564
58	0x3cd2557a	0.025675524
59	0x3d80b90e	0.062852964
60	0xbc9fe5aa	-0.019518692
61	0x3e27d869	0.16391148
62	0x3ab856d3	0.0014063962
63	0x3ce228ba	0.02760731
64	0x3d6dd37e	0.058063023
65	0xbe08a4b6	-0.13344082
66	0xbda7be89	-0.081906386
67	0xbb1168c3	-0.0022187687
68	0xbe01f472	-0.12690905
69	0xbde0a7a3	-0.10969474
70	0x3cd43d9f	0.02590829
71	0x3e1997a3	0.14999251
72	0x3dac60ac	0.08416876
73	0x3d0ebe1e	0.03484928
74	0x3d5ee47f	0.05441713
75	0xbc481c38	-0.012213759
76	0xbdfd9573	-0.12382021
77	0xbca78079	-0.020447003
78	0xbd93e127	-0.07220679
79	0xb9c86134	-0.00038219395
80	0xbdb61525	-0.08890752
81	0x3d132734	0.03592606
82	0x3e113114	0.14178878
83	0xbdab1ef4	-0.08355513
84	0xbdab4450	-0.08362639
85	0xbc863e6f	-0.016387193
86	0xbdef39cc	-0.11680946
87	0xbdcc8901	-0.09987069
88	0xbd6fea9a	-0.058573343
89	0x3c68c55a	0.0142072085
90	0x3e105779	0.14095868
91	0x3dd07ea2	0.10180403
92	0x3ca6acd6	0.020346086
93	0x3d0e0b34	0.034678653
94	0xbda97f76	-0.08276264
95	0xbdaaf455	-0.08347384
96	0xbdd717a2	-0.105025545
97	0xbd8f75c7	-0.07004886
98	0xbd1b1693	-0.037863325
99	0x3dae8bcd	0.08522759
100	0x3d8bf4c2	0.06833793
101	0x3c8f7cf6	0.01751564
102	0xbc1c51d6	-0.009540996
103	0x3d0a53c4	0.03377129
104	0xbab5b41b	-0.001386288
105	0xbdd9ae9f	-0.106290095
106	0x3d2b2d13	0.041791033
107	0x3d8a2b6d	0.06746564
108	0xbd4f0402	-0.05054093
109	0xbd46e0c2	-0.04855419
110	0x3e28b200	0.16474152
111	0xbde57662	-0.1120422
112	0x3b8f3179	0.0043699113
113	0xbd78a90b	-0.060708087
114	0xbdb0e1f8	-0.0863685
115	0xbe0edc90	-0.13951325
116	0xbd429352	-0.047503777
117	0xbe0241b7	-0.1272038
118	0x3c0d78be	0.008634744
119	0x3d62f513	0.055409502
120	0xbddbf018	-0.107391536
121	0xbb3c57b8	-0.0028738808
122	0xbd6139ad	-0.054986645
123	0xbe0ef9bb	-0.13962452
124	0x3dda5777	0.10661214
125	0x3d9eb09f	0.077485316
126	0x3c078595	0.0082715945
127	0x3d8cd1bb	0.068759404
128	0xb9938a82	-0.0002814122
129	0x3bc35135	0.0059606084
130	0x3de36914	0.111040264
131	0x3d8f1f99	0.06988449
132	0xbdc3e808	-0.09565741
133	0x3dfcfbb2	0.123526946
134	0x3d36556c	0.04451506
135	0x3ccd6784	0.025073774
136	0x3b543aae	0.0032383609
137	0xbd79522c	-0.06086938
138	0x3d56cdff	0.052442547
139	0xbd90f7be	-0.07078503
140	0x3d55ee97	0.05222949
141	0x3d452873	0.04813428
142	0x3e212c4b	0.15739553
143	0x3d99ba0c	0.07506189
144	0x3dfcbb5c	0.123404235
145	0x3ceedf9c	0.02915936
146	0xbe3e8c85	-0.18608291
147	0x3d689487	0.05678227
148	0xbc69e077	-0.014274708
149	0x3cd411d5	0.02588741
150	0xbb5bf50a	-0.0033562803
151	0x3da9c7c8	0.082900584
152	0xbdd03f7a	-0.10168357
153	0x3c8e6991	0.017384322
154	0x3d227dc1	0.03967071
155	0xbdefe34f	-0.117132775
156	0x3db5799c	0.08861086
157	0xbdb823b0	-0.08991182
158	0x3dbe780e	0.09300242
159	0xbd6f7ecf	-0.058470543
160	0xbdf7caeb	-0.120992504
161	0xbda66fd2	-0.08126797
162	0x3dc2091d	0.094743945
163	0xbd444e4a	-0.047926225
164	0x3e0b773f	0.13619708
165	0xbde982db	-0.11401912
166	0xbdff2996	-0.12459104
167	0xbacf340a	-0.0015808356
168	0x3d82f5bb	0.063945256
169	0x3d896f9a	0.067107394
170	0x3bd9184c	0.006625211
171	0xbe0001d9	-0.12500705
172	0xbca1cceb	-0.019751033
173	0xbc1d3bbe	-0.009596763
174	0xbc760d43	-0.01501781
175	0xbbc5b540	-0.0060335696
176	0x3de9dfbd	0.11419628
177	0x3a999167	0.0011716307
178	0x3df714f9	0.12064547
179	0x3dadf824	0.08494595
180	0x3c95fb34	0.01830826
181	0x3cd38722	0.025821272
182	0x3e2734d9	0.16328754
183	0x3e49fecd	0.19726105
184	0x3d8e3d22	0.06945254
185	0xbe039e8e	-0.12853453
186	0xbe049cc6	-0.1295043
187	0xbcc3af83	-0.023887401
188	0x3ac798f1	0.0015228075
189	0xbdee9c0b	-0.116508566
190	0xbd511732	-0.05104751
191	0x3d940223	0.0722697
192	0x3d2e4831	0.042549316
193	0x3ad2290a	0.0016033959
194	0xbe0f6cf1	-0.14006402
195	0x3ae6fb47	0.0017622494
196	0xbd47e382	-0.048800953
197	0x3d9402bb	0.07227083
198	0xbdd2d122	-0.10293795
199	0xbd10e894	-0.035378054
200	0x3e1f2250	0.15540433
201	0xbd9ffe6a	-0.078121975
202	0xbb6e7ad9	-0.003638914
203	0x3dc4aea8	0.096036255
204	0xbd91778b	-0.07102879
205	0x3dd1a225	0.10236005
206	0xbd8d69d1	-0.069049485
207	0x3e002d1d	0.1251721
208	0x3e1830f8	0.1486243
209	0x3c75e808	0.015008934
210	0x3da6a433	0.08136787
211	0x3a1cea22	0.0005985816
212	0xbe154976	-0.14578804
213	0xbdc71fad	-0.097228386
214	0xbe13140e	-0.14363119
215	0xbe01fe88	-0.12694752
216	0xbdd26284	-0.102726966
217	0xbe1ad08a	-0.15118614
218	0xbd3b6007	-0.045745876
219	0xbd1515a0	-0.036397576
220	0x3c0eb828	0.008710898
221	0xbd07362b	-0.033010643
222	0x3c91594d	0.017742777
223	0x38d40140	0.000101091806
224	0x3d0ed664	0.034872428
225	0xbe13950c	-0.14412326
226	0x3db6124e	0.0889021
227	0xbe236847	-0.15957747
228	0xbdfe7d4f	-0.124262445
229	0xbe25e887	-0.16201983
230	0x3d3f9ad3	0.04677851
231	0x3d9fe690	0.07807648
232	0xbbf88c90	-0.0075851157
233	0x3cf3079b	0.029666713
234	0xbdbb9391	-0.091590054
235	0xbe066d5d	-0.13127656
236	0x3da3adc2	0.07992126
237	0xbd59cc9c	-0.053173646
238	0x3d96372b	0.07334741
239	0xbd1617df	-0.03664386
240	0xbd8e174a	-0.06938036
241	0x3d449a24	0.047998562
242	0x3d08a685	0.03336193
243	0x3e277fc4	0.16357332
244	0xbdeb8156	-0.11499278
245	0x3d40cccf	0.04707032
246	0xbdd758c2	-0.10514976
247	0x3ce76996	0.02824859
248	0x3d818d0c	0.06325731
249	0xbd48bd42	-0.049008615
250	0xbda704d0	-0.08155215
251	0x3d420e26	0.047376774
252	0xbd9cb853	-0.076523446
253	0x3dbbb31a	0.0916502
254	0xbe0abe18	-0.13549078
255	0xbdade72a	-0.08491357

lstm2.bias_ih_l0 f4 [200]
0	0x3d87b7f5	0.06626884
1	0xbc646c77	-0.013941876
2	0x3d8b1329	0.06790764
3	0x3dc10703	0.094251655
4	0xbda73c71	-0.08165825
5	0xbd23cddd	-0.03999125
6	0x3dae9cda	0.08526011
7	0x3dd986a1	0.106213816
8	0x3d47c55a	0.048772193
9	0x3dc72033	0.097229384
10	0x3ddf45c2	0.10901977
11	0x3c7570c2	0.014980497
12	0xbd8e714b	-0.06955203
13	0x3dff2dfb	0.12459942
14	0xbe44887d	-0.19192691
15	0xbe3b46f8	-0.18288791
16	0xbe0273e7	-0.12739526
17	0x3d34c1e6	0.04413023
18	0xbd7daad0	-0.061930478
19	0x3e33946f	0.17537092
20	0x3db6a5c8	0.08918339
21	0xbd06bd60	-0.032895446
22	0x3d4ac20c	0.049501464
23	0xbe1cc799	-0.15310515
24	0xbdcc1b40	-0.09966135
25	0xbd69df43	-0.057097685
26	0x3ceea52e	0.029131498
27	0x3d208db9	0.039197657
28	0xbd7f3a48	-0.06231144
29	0x3dfd2c6c	0.123619884
30	0x3d1a52cb	0.037676614
31	0xbdce56cd	-0.1007515
32	0x3e414517	0.18874012
33	0x3dbd591f	0.09245514
34	0xbc0b871e	-0.008516101
35	0xbda46fa0	-0.08029103
36	0x3ddbd943	0.10734799
37	0x3dcbae73	0.09945383
38	0x3d2d4a0f	0.042306956
39	0xbdf953d3	-0.12174191
40	0x3cf63ce9	0.030058341
41	0x3d9149ac	0.0709413
42	0xbd0198ed	-0.031639982
43	0xbdbb138c	-0.09134588
44	0xbe03f67c	-0.12886995
45	0x3c4e219a	0.012581253
46	0xbd942d32	-0.07235183
47	0xbd14e269	-0.036348734
48	0x3af81638	0.001892752
49	0x3cdfaddc	0.027304582
50	0xbd7f1302	-0.062273987
51	0x3d14075b	0.036139827
52	0x3dc52965	0.09627036
53	0xbe446f93	-0.19183187
54	0xbce5bb41	-0.028043391
55	0xbe3b1bd4	-0.18272334
56	0xbe6a0ede	-0.22857234
57	0xbd4a2e91	-0.049360815
58	0x3d53b756	0.051688515
59	0xbe5c96ae	-0.21541855
60	0xbda3e385	-0.0800238
61	0x3d912cca	0.07088621
62	0xbe43e3cc	-0.19129866
63	0xbe186948	-0.14883912
64	0x3c063e0f	0.008193507
65	0xbe324521	-0.17409183
66	0xbc9ed3b7	-0.019388063
67	0xbe0fe922	-0.14053777
68	0xbdce86ec	-0.10084328
69	0xbca8f525	-0.020624707
70	0xbe0b3c3b	-0.13597195
71	0x3d94771a	0.07249279
72	0xbd078d89	-0.033093963
73	0xbe28de9b	-0.16491167
74	0xbdc89997	-0.0979492
75	0x3c6ac5cf	0.014329388
76	0xbd501487	-0.050800826
77	0xbd511a21	-0.05105031
78	0x3c81e1cc	0.015854739
79	0xbe32459c	-0.17409366
80	0x3d0f2fae	0.03495758
81	0xbde056c7	-0.109540515
82	0xbde35179	-0.11099524
83	0x3d50cc15	0.050975878
84	0x3d5e4ed5	0.0542744
85	0x3baf19b8	0.005343642
86	0xbd9fcf6b	-0.07803234
87	0xbc86ae4e	-0.016440537
88	0x3c80b5a1	0.015711607
89	0xbdaf41ed	-0.08557496
90	0xbd10db73	-0.035365533
91	0x3d25d495	0.040485937
92	0xbe25a7e3	-0.16177325
93	0xbe23ffa8	-0.16015494
94	0xbd97efc5	-0.07418779
95	0x3c35169b	0.011052753
96	0x3ca7c256	0.020478409
97	0xbd934e0e	-0.07192622
98	0xbe15639a	-0.14588776
99	0x3d357582	0.044301517
100	0x3c8ec13d	0.017426128
101	0x3baeb3a1	0.005331472
102	0x3d4c17dd	0.049827445
103	0x3d1aeae4	0.037821665
104	0x3cafbbe7	0.021451904
105	0xbc3d0b16	-0.011538288
106	0x3d0135aa	0.03154532
107	0xbd8014e2	-0.06253983
108	0xbdea2886	-0.114335105
109	0x3da0bdb7	0.07848685
110	0x3dccc916	0.099992916
111	0x3db2a382	0.08722593
112	0x3bf88f26	0.007585424
113	0xbda7f734	-0.08201447
114	0x3d80e2ea	0.062932804
115	0x3d7ec7da	0.062202312
116	0xbdb82510	-0.08991444
117	0x3d8581b6	0.06518881
118	0xbc57ad93	-0.013163942
119	0x3c800c9d	0.015631014
120	0x3deb8699	0.11500282
121	0xbbefb5ba	-0.0073153647
122	0xbb396648	-0.0028289724
123	0xbb74eaab	-0.0037371318
124	0x3d3189cc	0.043344304
125	0xbdcb87c8	-0.099380076
126	0xbdbec32c	-0.0931457
127	0xbcc7d890	-0.024395257
128	0x3d23b6aa	0.039969124
129	0x3cdf344d	0.027246619
130	0x3d5538ca	0.05205611
131	0x3bfb7746	0.0076741306
132	0xbd5e33f8	-0.05424878
133	0x3d64b75e	0.055838935
134	0xbcc03b52	-0.023465786
135	0x3d3201b2	0.043458648
136	0xbc85b80e	-0.016323116
137	0x3dc4bebf	0.096066944
138	0xbd92cee5	-0.07168368
139	0x3cf204a4	0.029543228
140	0xbd9ab52d	-0.07554088
141	0x3c91a0e1	0.017776908
142	0xbc91905d	-0.017769033
143	0xbc47da80	-0.012198091
144	0x3d63b69a	0.055594064
145	0xbd05f997	-0.03270873
146	0x3d368417	0.044559564
147	0x3d48d597	0.04903182
148	0x3d7cf269	0.061754618
149	0x3ca5e328	0.020249918
150	0x3cb88d42	0.022528294
151	0x3dd9002d	0.10595737
152	0x3c2c1606	0.010503298
153	0xbd7082b1	-0.058718387
154	0x3d63d76c	0.055625364
155	0x3bc026b2	0.005863988
156	0x3dea33aa	0.114356354
157	0x3d8d3b0f	0.0689603
158	0x3cc4339d	0.023950392
159	0xbce7e0c1	-0.028305413
160	0x3e06118f	0.13092636
161	0x3d998f7d	0.07498071
162	0x3df849a0	0.12123418
163	0x3da5ffbf	0.0810542
164	0x3cbe6bc7	0.023244752
165	0xbd4635ed	-0.04839127
166	0x3d7f776f	0.06236976
167	0x3d8804f0	0.06641567
168	0x3e1ac7d8	0.15115297
169	0xbdca74d7	-0.09885567
170	0xbda2919b	-0.07937928
171	0xbdb6a351	-0.08917869
172	0x3e0eca9a	0.13944474
173	0x3dc6eeb0	0.09713495
174	0x3e243c19	0.1603855
175	0xbe1a5943	-0.15073113
176	0x3cccebe9	0.025014834
177	0xbdc5cd26	-0.096582696
178	0x3de3c1dc	0.1112096
179	0x3d3914d3	0.045185875
180	0xbce06036	-0.027389627
181	0x3c152f48	0.009105511
182	0x3d510c68	0.051037222
183	0xbe233dd3	-0.15941553
184	0x3d2783e6	0.040897273
185	0x3d17a861	0.037025813
186	0xbdfef3bb	-0.12448832
187	0x3de76fc0	0.113006115
188	0x3dc7b39b	0.09751054
189	0xbe2eb74e	-0.17062113
190	0xbbf1af1d	-0.0073756115
191	0xbd939789	-0.072066374
192	0xbd4f7951	-0.050652806
193	0xbd076643	-0.03305651
194	0x3dddbbff	0.10826873
195	0x3dcaf0e6	0.09909229
196	0x3ce7c000	0.028289795
197	0x3ca4177f	0.020030735
198	0x3dd28a9a	0.102803424
199	0xbe0965e5	-0.13417776

lstm2.bias_hh_l0 f4 [200]
0	0xbdd7c1ea	-0.10535033
1	0x3dc16a7c	0.094441384
2	0xbd7b0920	-0.061288
3	0x3e1ab291	0.1510718
4	0xbddd4e57	-0.10805958
5	0x3d183e00	0.037168503
6	0x3c355605	0.011067872
7	0xbdd90937	-0.10597461
8	0x3c40fee6	0.0117795225
9	0xbe281502	-0.16414264
10	0xbce6c3f2	-0.028169606
11	0x3dad9a0a	0.08476646
12	0x3de2b02b	0.110687576
13	0x3dd8324f	0.105564706
14	0xbcfb54ae	-0.030680027
15	0x3c96f7e6	0.018428754
16	0xbca63685	-0.020289669
17	0xbccc4551	-0.024935396
18	0xbd9c70b0	-0.07638681
19	0x3d93db4e	0.072195634
20	0xbdd082f9	-0.10181231
21	0xbdbe9b80	-0.09307003
22	0x3d835c44	0.06414083
23	0xbb368ed1	-0.0027856121
24	0x3b67d5ff	0.0035375354
25	0xbdd430d6	-0.10360877
26	0x3dd314bf	0.103066914
27	0xbc02b0c1	-0.007976712
28	0xbcf47f85	-0.029845962
29	0x3e17982e	0.14804146
30	0xbd953f86	-0.07287507
31	0x3d8b28a0	0.06794858
32	0x3dde3bd8	0.10851258
33	0xbe0991db	-0.13434546
34	0x3bb5ff6a	0.0055541294
35	0x3e01b744	0.12667567
36	0x3c6a2354	0.014290649
37	0x3cd7751c	0.02630096
38	0xbd8b601b	-0.0680544
39	0x3d979b23	0.07402637
40	0xbbf40fe3	-0.007448183
41	0xbc23a52b	-0.00998811
42	0x3d1fd040	0.039016962
43	0xbdac4183	-0.08410933
44	0x3cd1df1d	0.025619084
45	0xbd846a0a	-0.06465538
46	0xbd982cf1	-0.07430447
47	0xbd244edb	-0.040114265
48	0x3d30c091	0.043152396
49	0xbe1ae8f5	-0.15127929
50	0xbb9ee024	-0.004848497
51	0x3c6ba958	0.014383636
52	0xbe027e8b	-0.12743585
53	0xbcc8f304	-0.024529941
54	0xbdf55191	-0.11978448
55	0x3c239a2c	0.009985488
56	0xbd4b5867	-0.049644854
57	0xbdfbf128	-0.12301856
58	0x3d815c55	0.06316439
59	0xbe340d88	-0.17583287
60	0xbdf893c6	-0.121375605
61	0xbd5ee63e	-0.054418795
62	0xbe33efa8	-0.1757189
63	0xbc403b41	-0.011732877
64	0xbe42847b	-0.1899585
65	0xbe240971	-0.16019227
66	0xbab7aa6d	-0.0014012583
67	0xbd684231	-0.05670375
68	0x3a826ef6	0.0009951282
69	0xbe3ec174	-0.18628484
70	0xbdefe056	-0.117127106
71	0xbd5f91f2	-0.054582544
72	0xbda8eb88	-0.08248049
73	0x3d648365	0.05578937
74	0xbd933069	-0.07186968
75	0x3c9119d0	0.017712504
76	0xbcc03e4b	-0.023467204
77	0xbcb08016	-0.021545451
78	0x3daa448e	0.08313857
79	0xbcf5e6e4	-0.030017324
80	0xbda66709	-0.08125121
81	0xbe11d771	-0.1424234
82	0xbe16502f	-0.14679025
83	0xbe15277c	-0.14565843
84	0x3d333ebe	0.043761007
85	0xbe18fb49	-0.14939608
86	0xbe1cab2f	-0.15299676
87	0xbe52f513	-0.20601301
88	0xbdc331f8	-0.09531015
89	0xbdb05da8	-0.086116135
90	0xbe5b87dc	-0.21438545
91	0x3d318141	0.043336157
92	0xbd9c4fcd	-0.07632408
93	0xbe35864c	-0.17727011
94	0xbdb90a5e	-0.090351805
95	0xbc00ca19	-0.007860684
96	0xbd667b79	-0.056270096
97	0xbd3db658	-0.046316475
98	0xbe1886ea	-0.14895216
99	0x3cfc8268	0.030823901
100	0xbd9d5fda	-0.07684298
101	0x3c40b342	0.011761488
102	0xbd4486d4	-0.047980145
103	0xbdb01235	-0.08597223
104	0xbc9c1166	-0.019051265
105	0x3b341fb4	0.0027484717
106	0xbda47390	-0.08029854
107	0x3d07d6e4	0.03316392
108	0x3da23c20	0.07921624
109	0xbd798995	-0.060922224
110	0xbde95ec5	-0.11395029
111	0xbdb1d3c8	-0.08682972
112	0x3d5a8944	0.053353563
113	0x3ce3603e	0.027755853
114	0x3c2e0610	0.010621563
115	0xbdb6f3b9	-0.08933205
116	0x3cf85f1d	0.030318791
117	0x3ca3d13e	0.019997235
118	0x3cf8b2c8	0.030358687
119	0xbc25cebd	-0.010120091
120	0xbde3e284	-0.11127189
121	0xbdd56098	-0.104188144
122	0xbd4270c1	-0.04747081
123	0x3cd898fa	0.026440132
124	0x3d0743fc	0.03302382
125	0x3dd45cca	0.103692606
126	0x3da00f3e	0.07815407
127	0x3d73cc22	0.059520848
128	0x3c356442	0.011071267
129	0xbade411e	-0.0016956662
130	0xbd32da24	-0.043665066
131	0x3d43f20c	0.047838256
132	0x3c1a5f6e	0.009422166
133	0xbd67f307	-0.056628253
134	0xbd71ec78	-0.059063405
135	0x3cde642a	0.027147371
136	0xbd6dd4bb	-0.058064204
137	0xbcd7aed6	-0.026328485
138	0x3dc34460	0.09534526
139	0x3d3e900b	0.04652409
140	0x3d32c7e4	0.04364766
141	0xbd6fa553	-0.058507275
142	0xbb7e0541	-0.0038760456
143	0xbcd18932	-0.025578115
144	0xbba6217e	-0.0050699105
145	0xbb7e30a1	-0.003878631
146	0xbc595bc8	-0.013266511
147	0x3d1609b6	0.036630355
148	0xbc4d5606	-0.012532717
149	0x3c24698c	0.01003493
150	0xbd01fc36	-0.031734668
151	0xbdc47834	-0.095932394
152	0xbd1df7ad	-0.03856628
153	0xbb8bb72d	-0.0042637796
154	0xbda8c162	-0.0824001
155	0x3e295191	0.16535021
156	0x3d847aea	0.064687565
157	0x3d3a88c8	0.0455406
158	0x3cbe8dfd	0.023261065
159	0x3d8452a1	0.06461073
160	0xbd79ab77	-0.060954537
161	0x3c176572	0.009240495
162	0xbc5405bf	-0.012940823
163	0xbd5c1eaf	-0.0537402
164	0x3d7084f7	0.058720555
165	0xbd84e0f8	-0.06488222
166	0x3db395ce	0.08768807
167	0x3dc77f58	0.09741086
168	0x3df18b04	0.11794093
169	0xbda79ade	-0.081838354
170	0xbd4f1333	-0.05055542
171	0xbd8114d9	-0.063028045
172	0xbc02f433	-0.007992792
173	0xbe0fa333	-0.140271
174	0x3be41ced	0.006961456
175	0xbe16691a	-0.1468853
176	0xbd6d5859	-0.057945583
177	0x3c9b60da	0.01896708
178	0xbd3c7412	-0.04600913
179	0xbb3839c7	-0.002811061
180	0xbe362673	-0.17788105
181	0xbdee8146	-0.11645751
182	0x3e272b8a	0.16325203
183	0xbde4c655	-0.11170641
184	0xbd184bf4	-0.03718181
185	0x3d21cf83	0.03950454
186	0xbda919b1	-0.08256853
187	0xbe132cbb	-0.14372532
188	0x3daafe28	0.08349258
189	0xbd7283b0	-0.05920762
190	0x3a63f1a3	0.00086953695
191	0x3df09c4c	0.11748561
192	0x3e479cb0	0.19493365
193	0xbcc593fa	-0.024118412
194	0x3d6f186d	0.058372904
195	0x3e0dad93	0.13835745
196	0x3d6b99f6	0.057519875
197	0x3d556ad1	0.05210382
198	0x3d9e521e	0.07730506
199	0x3cdd05d0	0.02698031

linear.weight f4 [1, 50]
0	0xbd8d16e9	-0.068891354
1	0xbdc75cda	-0.09734507
2	0x3d5ebe81	0.054380897
3	0xbdbdd24a	-0.09268625
4	0x3e098a89	0.13431753
5	0xbdc466f2	-0.09589948
6	0xbdd2ffb7	-0.1030268
7	0xbdae619d	-0.08514712
8	0xbdc72253	-0.09723344
9	0x3db05dd9	0.0861165
10	0xbdef0cd0	-0.11672366
11	0xbe17a6b7	-0.1480969
12	0x3d79377a	0.060843922
13	0xbdc0e8ad	-0.094193794
14	0x3d1aaa47	0.037760045
15	0xbd86f457	-0.06589573
16	0xbdef4e58	-0.11684865
17	0x3db24584	0.08704665
18	0x3da3cd8f	0.079981916
19	0x3df31e1d	0.11870978
20	0xbdd4f94e	-0.103991136
21	0xbca7c714	-0.02048067
22	0xbe0be590	-0.1366179
23	0x3d8d2730	0.0689224
24	0x3de73a28	0.11290389
25	0x3d83da05	0.06438068
26	0xbdc0c77c	-0.094130486
27	0x3dafbc63	0.08580854
28	0x3dd3230d	0.1030942
29	0x3de472f6	0.111547396
30	0xbd42d586	-0.047566913
31	0x3d4c0710	0.049811423
32	0xbdafa12a	-0.085756615
33	0x3da57dd1	0.08080638
34	0xbce60a9c	-0.02808123
35	0x3dcc8a18	0.09987277
36	0xbdb59bdb	-0.08867618
37	0x3db72c65	0.089440145
38	0x3d7a884c	0.06116514
39	0x3d7abcfa	0.06121538
40	0xbdfae46e	-0.12250601
41	0xbdc3426f	-0.095341556
42	0xbdb155ba	-0.08658929
43	0xbda8c928	-0.082414925
44	0x3e010979	0.1260127
45	0xbd96d601	-0.07365037
46	0x3dac57e8	0.08415204
47	0x3db715e7	0.089397244
48	0x3da6a48d	0.08136854
49	0xbdea66c0	-0.11445379
